func.func @resnet_basic_3_3_3_3(
    %input: tensor<1x3x224x224xf16>,
    %w_conv1: tensor<64x3x7x7xf16>,
    %w_pool: tensor<64x64x3x3xf16>,
    %w_s0_b0_c1: tensor<64x64x3x3xf16>,
    %w_s0_b0_c2: tensor<64x64x3x3xf16>,
    %w_s0_b1_c1: tensor<64x64x3x3xf16>,
    %w_s0_b1_c2: tensor<64x64x3x3xf16>,
    %w_s0_b2_c1: tensor<64x64x3x3xf16>,
    %w_s0_b2_c2: tensor<64x64x3x3xf16>,
    %w_s1_b0_c1: tensor<128x64x3x3xf16>,
    %w_s1_b0_c2: tensor<128x128x3x3xf16>,
    %w_s1_b0_sc: tensor<128x64x1x1xf16>,
    %w_s1_b1_c1: tensor<128x128x3x3xf16>,
    %w_s1_b1_c2: tensor<128x128x3x3xf16>,
    %w_s1_b2_c1: tensor<128x128x3x3xf16>,
    %w_s1_b2_c2: tensor<128x128x3x3xf16>,
    %w_s2_b0_c1: tensor<256x128x3x3xf16>,
    %w_s2_b0_c2: tensor<256x256x3x3xf16>,
    %w_s2_b0_sc: tensor<256x128x1x1xf16>,
    %w_s2_b1_c1: tensor<256x256x3x3xf16>,
    %w_s2_b1_c2: tensor<256x256x3x3xf16>,
    %w_s2_b2_c1: tensor<256x256x3x3xf16>,
    %w_s2_b2_c2: tensor<256x256x3x3xf16>,
    %w_s3_b0_c1: tensor<512x256x3x3xf16>,
    %w_s3_b0_c2: tensor<512x512x3x3xf16>,
    %w_s3_b0_sc: tensor<512x256x1x1xf16>,
    %w_s3_b1_c1: tensor<512x512x3x3xf16>,
    %w_s3_b1_c2: tensor<512x512x3x3xf16>,
    %w_s3_b2_c1: tensor<512x512x3x3xf16>,
    %w_s3_b2_c2: tensor<512x512x3x3xf16>,
    %w_fc: tensor<1000x512x7x7xf16>) -> tensor<1x1000x1x1xf16> {
  %cst = arith.constant 0.0 : f16

  // conv1: 7x7 stride 2, 3->64, 224->112
  %pad0 = tensor.pad %input low[0, 0, 3, 3] high[0, 0, 3, 3] {
  ^bb0(%a0: index, %a1: index, %a2: index, %a3: index):
    tensor.yield %cst : f16
  } : tensor<1x3x224x224xf16> to tensor<1x3x230x230xf16>
  %init1 = tensor.empty() : tensor<1x64x112x112xf16>
  %fill2 = linalg.fill ins(%cst : f16) outs(%init1 : tensor<1x64x112x112xf16>) -> tensor<1x64x112x112xf16>
  %conv3 = linalg.conv_2d_nchw_fchw {
    dilations = dense<1> : tensor<2xi64>,
    strides = dense<2> : tensor<2xi64>
  } ins(%pad0, %w_conv1 : tensor<1x3x230x230xf16>, tensor<64x3x7x7xf16>)
    outs(%fill2 : tensor<1x64x112x112xf16>) -> tensor<1x64x112x112xf16>
  %empty4 = tensor.empty() : tensor<1x64x112x112xf16>
  %relu5 = linalg.generic {
    indexing_maps = [affine_map<(d0, d1, d2, d3) -> (d0, d1, d2, d3)>,
                     affine_map<(d0, d1, d2, d3) -> (d0, d1, d2, d3)>],
    iterator_types = ["parallel", "parallel", "parallel", "parallel"]
  } ins(%conv3 : tensor<1x64x112x112xf16>)
    outs(%empty4 : tensor<1x64x112x112xf16>) {
  ^bb0(%in: f16, %out: f16):
    %z = arith.constant 0.0 : f16
    %m = arith.maximumf %in, %z : f16
    linalg.yield %m : f16
  } -> tensor<1x64x112x112xf16>

  // stride-2 3x3 conv simulating maxpool: 112->56
  %pad6 = tensor.pad %relu5 low[0, 0, 1, 1] high[0, 0, 1, 1] {
  ^bb0(%a0: index, %a1: index, %a2: index, %a3: index):
    tensor.yield %cst : f16
  } : tensor<1x64x112x112xf16> to tensor<1x64x114x114xf16>
  %init7 = tensor.empty() : tensor<1x64x56x56xf16>
  %fill8 = linalg.fill ins(%cst : f16) outs(%init7 : tensor<1x64x56x56xf16>) -> tensor<1x64x56x56xf16>
  %conv9 = linalg.conv_2d_nchw_fchw {
    dilations = dense<1> : tensor<2xi64>,
    strides = dense<2> : tensor<2xi64>
  } ins(%pad6, %w_pool : tensor<1x64x114x114xf16>, tensor<64x64x3x3xf16>)
    outs(%fill8 : tensor<1x64x56x56xf16>) -> tensor<1x64x56x56xf16>
  %empty10 = tensor.empty() : tensor<1x64x56x56xf16>
  %relu11 = linalg.generic {
    indexing_maps = [affine_map<(d0, d1, d2, d3) -> (d0, d1, d2, d3)>,
                     affine_map<(d0, d1, d2, d3) -> (d0, d1, d2, d3)>],
    iterator_types = ["parallel", "parallel", "parallel", "parallel"]
  } ins(%conv9 : tensor<1x64x56x56xf16>)
    outs(%empty10 : tensor<1x64x56x56xf16>) {
  ^bb0(%in: f16, %out: f16):
    %z = arith.constant 0.0 : f16
    %m = arith.maximumf %in, %z : f16
    linalg.yield %m : f16
  } -> tensor<1x64x56x56xf16>

  // === Stage 0 ===
  // BasicBlock 64->64 56x56 stride=1
  %pad12 = tensor.pad %relu11 low[0, 0, 1, 1] high[0, 0, 1, 1] {
  ^bb0(%a0: index, %a1: index, %a2: index, %a3: index):
    tensor.yield %cst : f16
  } : tensor<1x64x56x56xf16> to tensor<1x64x58x58xf16>
  %init13 = tensor.empty() : tensor<1x64x56x56xf16>
  %fill14 = linalg.fill ins(%cst : f16) outs(%init13 : tensor<1x64x56x56xf16>) -> tensor<1x64x56x56xf16>
  %conv15 = linalg.conv_2d_nchw_fchw {
    dilations = dense<1> : tensor<2xi64>,
    strides = dense<1> : tensor<2xi64>
  } ins(%pad12, %w_s0_b0_c1 : tensor<1x64x58x58xf16>, tensor<64x64x3x3xf16>)
    outs(%fill14 : tensor<1x64x56x56xf16>) -> tensor<1x64x56x56xf16>
  %empty16 = tensor.empty() : tensor<1x64x56x56xf16>
  %relu17 = linalg.generic {
    indexing_maps = [affine_map<(d0, d1, d2, d3) -> (d0, d1, d2, d3)>,
                     affine_map<(d0, d1, d2, d3) -> (d0, d1, d2, d3)>],
    iterator_types = ["parallel", "parallel", "parallel", "parallel"]
  } ins(%conv15 : tensor<1x64x56x56xf16>)
    outs(%empty16 : tensor<1x64x56x56xf16>) {
  ^bb0(%in: f16, %out: f16):
    %z = arith.constant 0.0 : f16
    %m = arith.maximumf %in, %z : f16
    linalg.yield %m : f16
  } -> tensor<1x64x56x56xf16>
  %pad18 = tensor.pad %relu17 low[0, 0, 1, 1] high[0, 0, 1, 1] {
  ^bb0(%a0: index, %a1: index, %a2: index, %a3: index):
    tensor.yield %cst : f16
  } : tensor<1x64x56x56xf16> to tensor<1x64x58x58xf16>
  %init19 = tensor.empty() : tensor<1x64x56x56xf16>
  %fill20 = linalg.fill ins(%cst : f16) outs(%init19 : tensor<1x64x56x56xf16>) -> tensor<1x64x56x56xf16>
  %conv21 = linalg.conv_2d_nchw_fchw {
    dilations = dense<1> : tensor<2xi64>,
    strides = dense<1> : tensor<2xi64>
  } ins(%pad18, %w_s0_b0_c2 : tensor<1x64x58x58xf16>, tensor<64x64x3x3xf16>)
    outs(%fill20 : tensor<1x64x56x56xf16>) -> tensor<1x64x56x56xf16>
  %empty22 = tensor.empty() : tensor<1x64x56x56xf16>
  %add23 = linalg.generic {
    indexing_maps = [affine_map<(d0, d1, d2, d3) -> (d0, d1, d2, d3)>,
                     affine_map<(d0, d1, d2, d3) -> (d0, d1, d2, d3)>,
                     affine_map<(d0, d1, d2, d3) -> (d0, d1, d2, d3)>],
    iterator_types = ["parallel", "parallel", "parallel", "parallel"]
  } ins(%conv21, %relu11 : tensor<1x64x56x56xf16>, tensor<1x64x56x56xf16>)
    outs(%empty22 : tensor<1x64x56x56xf16>) {
  ^bb0(%a: f16, %b: f16, %out: f16):
    %sum = arith.addf %a, %b : f16
    linalg.yield %sum : f16
  } -> tensor<1x64x56x56xf16>
  %empty24 = tensor.empty() : tensor<1x64x56x56xf16>
  %relu25 = linalg.generic {
    indexing_maps = [affine_map<(d0, d1, d2, d3) -> (d0, d1, d2, d3)>,
                     affine_map<(d0, d1, d2, d3) -> (d0, d1, d2, d3)>],
    iterator_types = ["parallel", "parallel", "parallel", "parallel"]
  } ins(%add23 : tensor<1x64x56x56xf16>)
    outs(%empty24 : tensor<1x64x56x56xf16>) {
  ^bb0(%in: f16, %out: f16):
    %z = arith.constant 0.0 : f16
    %m = arith.maximumf %in, %z : f16
    linalg.yield %m : f16
  } -> tensor<1x64x56x56xf16>

  // BasicBlock 64->64 56x56 stride=1
  %pad26 = tensor.pad %relu25 low[0, 0, 1, 1] high[0, 0, 1, 1] {
  ^bb0(%a0: index, %a1: index, %a2: index, %a3: index):
    tensor.yield %cst : f16
  } : tensor<1x64x56x56xf16> to tensor<1x64x58x58xf16>
  %init27 = tensor.empty() : tensor<1x64x56x56xf16>
  %fill28 = linalg.fill ins(%cst : f16) outs(%init27 : tensor<1x64x56x56xf16>) -> tensor<1x64x56x56xf16>
  %conv29 = linalg.conv_2d_nchw_fchw {
    dilations = dense<1> : tensor<2xi64>,
    strides = dense<1> : tensor<2xi64>
  } ins(%pad26, %w_s0_b1_c1 : tensor<1x64x58x58xf16>, tensor<64x64x3x3xf16>)
    outs(%fill28 : tensor<1x64x56x56xf16>) -> tensor<1x64x56x56xf16>
  %empty30 = tensor.empty() : tensor<1x64x56x56xf16>
  %relu31 = linalg.generic {
    indexing_maps = [affine_map<(d0, d1, d2, d3) -> (d0, d1, d2, d3)>,
                     affine_map<(d0, d1, d2, d3) -> (d0, d1, d2, d3)>],
    iterator_types = ["parallel", "parallel", "parallel", "parallel"]
  } ins(%conv29 : tensor<1x64x56x56xf16>)
    outs(%empty30 : tensor<1x64x56x56xf16>) {
  ^bb0(%in: f16, %out: f16):
    %z = arith.constant 0.0 : f16
    %m = arith.maximumf %in, %z : f16
    linalg.yield %m : f16
  } -> tensor<1x64x56x56xf16>
  %pad32 = tensor.pad %relu31 low[0, 0, 1, 1] high[0, 0, 1, 1] {
  ^bb0(%a0: index, %a1: index, %a2: index, %a3: index):
    tensor.yield %cst : f16
  } : tensor<1x64x56x56xf16> to tensor<1x64x58x58xf16>
  %init33 = tensor.empty() : tensor<1x64x56x56xf16>
  %fill34 = linalg.fill ins(%cst : f16) outs(%init33 : tensor<1x64x56x56xf16>) -> tensor<1x64x56x56xf16>
  %conv35 = linalg.conv_2d_nchw_fchw {
    dilations = dense<1> : tensor<2xi64>,
    strides = dense<1> : tensor<2xi64>
  } ins(%pad32, %w_s0_b1_c2 : tensor<1x64x58x58xf16>, tensor<64x64x3x3xf16>)
    outs(%fill34 : tensor<1x64x56x56xf16>) -> tensor<1x64x56x56xf16>
  %empty36 = tensor.empty() : tensor<1x64x56x56xf16>
  %add37 = linalg.generic {
    indexing_maps = [affine_map<(d0, d1, d2, d3) -> (d0, d1, d2, d3)>,
                     affine_map<(d0, d1, d2, d3) -> (d0, d1, d2, d3)>,
                     affine_map<(d0, d1, d2, d3) -> (d0, d1, d2, d3)>],
    iterator_types = ["parallel", "parallel", "parallel", "parallel"]
  } ins(%conv35, %relu25 : tensor<1x64x56x56xf16>, tensor<1x64x56x56xf16>)
    outs(%empty36 : tensor<1x64x56x56xf16>) {
  ^bb0(%a: f16, %b: f16, %out: f16):
    %sum = arith.addf %a, %b : f16
    linalg.yield %sum : f16
  } -> tensor<1x64x56x56xf16>
  %empty38 = tensor.empty() : tensor<1x64x56x56xf16>
  %relu39 = linalg.generic {
    indexing_maps = [affine_map<(d0, d1, d2, d3) -> (d0, d1, d2, d3)>,
                     affine_map<(d0, d1, d2, d3) -> (d0, d1, d2, d3)>],
    iterator_types = ["parallel", "parallel", "parallel", "parallel"]
  } ins(%add37 : tensor<1x64x56x56xf16>)
    outs(%empty38 : tensor<1x64x56x56xf16>) {
  ^bb0(%in: f16, %out: f16):
    %z = arith.constant 0.0 : f16
    %m = arith.maximumf %in, %z : f16
    linalg.yield %m : f16
  } -> tensor<1x64x56x56xf16>

  // BasicBlock 64->64 56x56 stride=1
  %pad40 = tensor.pad %relu39 low[0, 0, 1, 1] high[0, 0, 1, 1] {
  ^bb0(%a0: index, %a1: index, %a2: index, %a3: index):
    tensor.yield %cst : f16
  } : tensor<1x64x56x56xf16> to tensor<1x64x58x58xf16>
  %init41 = tensor.empty() : tensor<1x64x56x56xf16>
  %fill42 = linalg.fill ins(%cst : f16) outs(%init41 : tensor<1x64x56x56xf16>) -> tensor<1x64x56x56xf16>
  %conv43 = linalg.conv_2d_nchw_fchw {
    dilations = dense<1> : tensor<2xi64>,
    strides = dense<1> : tensor<2xi64>
  } ins(%pad40, %w_s0_b2_c1 : tensor<1x64x58x58xf16>, tensor<64x64x3x3xf16>)
    outs(%fill42 : tensor<1x64x56x56xf16>) -> tensor<1x64x56x56xf16>
  %empty44 = tensor.empty() : tensor<1x64x56x56xf16>
  %relu45 = linalg.generic {
    indexing_maps = [affine_map<(d0, d1, d2, d3) -> (d0, d1, d2, d3)>,
                     affine_map<(d0, d1, d2, d3) -> (d0, d1, d2, d3)>],
    iterator_types = ["parallel", "parallel", "parallel", "parallel"]
  } ins(%conv43 : tensor<1x64x56x56xf16>)
    outs(%empty44 : tensor<1x64x56x56xf16>) {
  ^bb0(%in: f16, %out: f16):
    %z = arith.constant 0.0 : f16
    %m = arith.maximumf %in, %z : f16
    linalg.yield %m : f16
  } -> tensor<1x64x56x56xf16>
  %pad46 = tensor.pad %relu45 low[0, 0, 1, 1] high[0, 0, 1, 1] {
  ^bb0(%a0: index, %a1: index, %a2: index, %a3: index):
    tensor.yield %cst : f16
  } : tensor<1x64x56x56xf16> to tensor<1x64x58x58xf16>
  %init47 = tensor.empty() : tensor<1x64x56x56xf16>
  %fill48 = linalg.fill ins(%cst : f16) outs(%init47 : tensor<1x64x56x56xf16>) -> tensor<1x64x56x56xf16>
  %conv49 = linalg.conv_2d_nchw_fchw {
    dilations = dense<1> : tensor<2xi64>,
    strides = dense<1> : tensor<2xi64>
  } ins(%pad46, %w_s0_b2_c2 : tensor<1x64x58x58xf16>, tensor<64x64x3x3xf16>)
    outs(%fill48 : tensor<1x64x56x56xf16>) -> tensor<1x64x56x56xf16>
  %empty50 = tensor.empty() : tensor<1x64x56x56xf16>
  %add51 = linalg.generic {
    indexing_maps = [affine_map<(d0, d1, d2, d3) -> (d0, d1, d2, d3)>,
                     affine_map<(d0, d1, d2, d3) -> (d0, d1, d2, d3)>,
                     affine_map<(d0, d1, d2, d3) -> (d0, d1, d2, d3)>],
    iterator_types = ["parallel", "parallel", "parallel", "parallel"]
  } ins(%conv49, %relu39 : tensor<1x64x56x56xf16>, tensor<1x64x56x56xf16>)
    outs(%empty50 : tensor<1x64x56x56xf16>) {
  ^bb0(%a: f16, %b: f16, %out: f16):
    %sum = arith.addf %a, %b : f16
    linalg.yield %sum : f16
  } -> tensor<1x64x56x56xf16>
  %empty52 = tensor.empty() : tensor<1x64x56x56xf16>
  %relu53 = linalg.generic {
    indexing_maps = [affine_map<(d0, d1, d2, d3) -> (d0, d1, d2, d3)>,
                     affine_map<(d0, d1, d2, d3) -> (d0, d1, d2, d3)>],
    iterator_types = ["parallel", "parallel", "parallel", "parallel"]
  } ins(%add51 : tensor<1x64x56x56xf16>)
    outs(%empty52 : tensor<1x64x56x56xf16>) {
  ^bb0(%in: f16, %out: f16):
    %z = arith.constant 0.0 : f16
    %m = arith.maximumf %in, %z : f16
    linalg.yield %m : f16
  } -> tensor<1x64x56x56xf16>

  // === Stage 1 ===
  // BasicBlock 64->128 56x56 stride=2
  %pad54 = tensor.pad %relu53 low[0, 0, 1, 1] high[0, 0, 1, 1] {
  ^bb0(%a0: index, %a1: index, %a2: index, %a3: index):
    tensor.yield %cst : f16
  } : tensor<1x64x56x56xf16> to tensor<1x64x58x58xf16>
  %init55 = tensor.empty() : tensor<1x128x28x28xf16>
  %fill56 = linalg.fill ins(%cst : f16) outs(%init55 : tensor<1x128x28x28xf16>) -> tensor<1x128x28x28xf16>
  %conv57 = linalg.conv_2d_nchw_fchw {
    dilations = dense<1> : tensor<2xi64>,
    strides = dense<2> : tensor<2xi64>
  } ins(%pad54, %w_s1_b0_c1 : tensor<1x64x58x58xf16>, tensor<128x64x3x3xf16>)
    outs(%fill56 : tensor<1x128x28x28xf16>) -> tensor<1x128x28x28xf16>
  %empty58 = tensor.empty() : tensor<1x128x28x28xf16>
  %relu59 = linalg.generic {
    indexing_maps = [affine_map<(d0, d1, d2, d3) -> (d0, d1, d2, d3)>,
                     affine_map<(d0, d1, d2, d3) -> (d0, d1, d2, d3)>],
    iterator_types = ["parallel", "parallel", "parallel", "parallel"]
  } ins(%conv57 : tensor<1x128x28x28xf16>)
    outs(%empty58 : tensor<1x128x28x28xf16>) {
  ^bb0(%in: f16, %out: f16):
    %z = arith.constant 0.0 : f16
    %m = arith.maximumf %in, %z : f16
    linalg.yield %m : f16
  } -> tensor<1x128x28x28xf16>
  %pad60 = tensor.pad %relu59 low[0, 0, 1, 1] high[0, 0, 1, 1] {
  ^bb0(%a0: index, %a1: index, %a2: index, %a3: index):
    tensor.yield %cst : f16
  } : tensor<1x128x28x28xf16> to tensor<1x128x30x30xf16>
  %init61 = tensor.empty() : tensor<1x128x28x28xf16>
  %fill62 = linalg.fill ins(%cst : f16) outs(%init61 : tensor<1x128x28x28xf16>) -> tensor<1x128x28x28xf16>
  %conv63 = linalg.conv_2d_nchw_fchw {
    dilations = dense<1> : tensor<2xi64>,
    strides = dense<1> : tensor<2xi64>
  } ins(%pad60, %w_s1_b0_c2 : tensor<1x128x30x30xf16>, tensor<128x128x3x3xf16>)
    outs(%fill62 : tensor<1x128x28x28xf16>) -> tensor<1x128x28x28xf16>
  // 1x1 shortcut conv
  %init64 = tensor.empty() : tensor<1x128x28x28xf16>
  %fill65 = linalg.fill ins(%cst : f16) outs(%init64 : tensor<1x128x28x28xf16>) -> tensor<1x128x28x28xf16>
  %conv66 = linalg.conv_2d_nchw_fchw {
    dilations = dense<1> : tensor<2xi64>,
    strides = dense<2> : tensor<2xi64>
  } ins(%relu53, %w_s1_b0_sc : tensor<1x64x56x56xf16>, tensor<128x64x1x1xf16>)
    outs(%fill65 : tensor<1x128x28x28xf16>) -> tensor<1x128x28x28xf16>
  %empty67 = tensor.empty() : tensor<1x128x28x28xf16>
  %add68 = linalg.generic {
    indexing_maps = [affine_map<(d0, d1, d2, d3) -> (d0, d1, d2, d3)>,
                     affine_map<(d0, d1, d2, d3) -> (d0, d1, d2, d3)>,
                     affine_map<(d0, d1, d2, d3) -> (d0, d1, d2, d3)>],
    iterator_types = ["parallel", "parallel", "parallel", "parallel"]
  } ins(%conv63, %conv66 : tensor<1x128x28x28xf16>, tensor<1x128x28x28xf16>)
    outs(%empty67 : tensor<1x128x28x28xf16>) {
  ^bb0(%a: f16, %b: f16, %out: f16):
    %sum = arith.addf %a, %b : f16
    linalg.yield %sum : f16
  } -> tensor<1x128x28x28xf16>
  %empty69 = tensor.empty() : tensor<1x128x28x28xf16>
  %relu70 = linalg.generic {
    indexing_maps = [affine_map<(d0, d1, d2, d3) -> (d0, d1, d2, d3)>,
                     affine_map<(d0, d1, d2, d3) -> (d0, d1, d2, d3)>],
    iterator_types = ["parallel", "parallel", "parallel", "parallel"]
  } ins(%add68 : tensor<1x128x28x28xf16>)
    outs(%empty69 : tensor<1x128x28x28xf16>) {
  ^bb0(%in: f16, %out: f16):
    %z = arith.constant 0.0 : f16
    %m = arith.maximumf %in, %z : f16
    linalg.yield %m : f16
  } -> tensor<1x128x28x28xf16>

  // BasicBlock 128->128 28x28 stride=1
  %pad71 = tensor.pad %relu70 low[0, 0, 1, 1] high[0, 0, 1, 1] {
  ^bb0(%a0: index, %a1: index, %a2: index, %a3: index):
    tensor.yield %cst : f16
  } : tensor<1x128x28x28xf16> to tensor<1x128x30x30xf16>
  %init72 = tensor.empty() : tensor<1x128x28x28xf16>
  %fill73 = linalg.fill ins(%cst : f16) outs(%init72 : tensor<1x128x28x28xf16>) -> tensor<1x128x28x28xf16>
  %conv74 = linalg.conv_2d_nchw_fchw {
    dilations = dense<1> : tensor<2xi64>,
    strides = dense<1> : tensor<2xi64>
  } ins(%pad71, %w_s1_b1_c1 : tensor<1x128x30x30xf16>, tensor<128x128x3x3xf16>)
    outs(%fill73 : tensor<1x128x28x28xf16>) -> tensor<1x128x28x28xf16>
  %empty75 = tensor.empty() : tensor<1x128x28x28xf16>
  %relu76 = linalg.generic {
    indexing_maps = [affine_map<(d0, d1, d2, d3) -> (d0, d1, d2, d3)>,
                     affine_map<(d0, d1, d2, d3) -> (d0, d1, d2, d3)>],
    iterator_types = ["parallel", "parallel", "parallel", "parallel"]
  } ins(%conv74 : tensor<1x128x28x28xf16>)
    outs(%empty75 : tensor<1x128x28x28xf16>) {
  ^bb0(%in: f16, %out: f16):
    %z = arith.constant 0.0 : f16
    %m = arith.maximumf %in, %z : f16
    linalg.yield %m : f16
  } -> tensor<1x128x28x28xf16>
  %pad77 = tensor.pad %relu76 low[0, 0, 1, 1] high[0, 0, 1, 1] {
  ^bb0(%a0: index, %a1: index, %a2: index, %a3: index):
    tensor.yield %cst : f16
  } : tensor<1x128x28x28xf16> to tensor<1x128x30x30xf16>
  %init78 = tensor.empty() : tensor<1x128x28x28xf16>
  %fill79 = linalg.fill ins(%cst : f16) outs(%init78 : tensor<1x128x28x28xf16>) -> tensor<1x128x28x28xf16>
  %conv80 = linalg.conv_2d_nchw_fchw {
    dilations = dense<1> : tensor<2xi64>,
    strides = dense<1> : tensor<2xi64>
  } ins(%pad77, %w_s1_b1_c2 : tensor<1x128x30x30xf16>, tensor<128x128x3x3xf16>)
    outs(%fill79 : tensor<1x128x28x28xf16>) -> tensor<1x128x28x28xf16>
  %empty81 = tensor.empty() : tensor<1x128x28x28xf16>
  %add82 = linalg.generic {
    indexing_maps = [affine_map<(d0, d1, d2, d3) -> (d0, d1, d2, d3)>,
                     affine_map<(d0, d1, d2, d3) -> (d0, d1, d2, d3)>,
                     affine_map<(d0, d1, d2, d3) -> (d0, d1, d2, d3)>],
    iterator_types = ["parallel", "parallel", "parallel", "parallel"]
  } ins(%conv80, %relu70 : tensor<1x128x28x28xf16>, tensor<1x128x28x28xf16>)
    outs(%empty81 : tensor<1x128x28x28xf16>) {
  ^bb0(%a: f16, %b: f16, %out: f16):
    %sum = arith.addf %a, %b : f16
    linalg.yield %sum : f16
  } -> tensor<1x128x28x28xf16>
  %empty83 = tensor.empty() : tensor<1x128x28x28xf16>
  %relu84 = linalg.generic {
    indexing_maps = [affine_map<(d0, d1, d2, d3) -> (d0, d1, d2, d3)>,
                     affine_map<(d0, d1, d2, d3) -> (d0, d1, d2, d3)>],
    iterator_types = ["parallel", "parallel", "parallel", "parallel"]
  } ins(%add82 : tensor<1x128x28x28xf16>)
    outs(%empty83 : tensor<1x128x28x28xf16>) {
  ^bb0(%in: f16, %out: f16):
    %z = arith.constant 0.0 : f16
    %m = arith.maximumf %in, %z : f16
    linalg.yield %m : f16
  } -> tensor<1x128x28x28xf16>

  // BasicBlock 128->128 28x28 stride=1
  %pad85 = tensor.pad %relu84 low[0, 0, 1, 1] high[0, 0, 1, 1] {
  ^bb0(%a0: index, %a1: index, %a2: index, %a3: index):
    tensor.yield %cst : f16
  } : tensor<1x128x28x28xf16> to tensor<1x128x30x30xf16>
  %init86 = tensor.empty() : tensor<1x128x28x28xf16>
  %fill87 = linalg.fill ins(%cst : f16) outs(%init86 : tensor<1x128x28x28xf16>) -> tensor<1x128x28x28xf16>
  %conv88 = linalg.conv_2d_nchw_fchw {
    dilations = dense<1> : tensor<2xi64>,
    strides = dense<1> : tensor<2xi64>
  } ins(%pad85, %w_s1_b2_c1 : tensor<1x128x30x30xf16>, tensor<128x128x3x3xf16>)
    outs(%fill87 : tensor<1x128x28x28xf16>) -> tensor<1x128x28x28xf16>
  %empty89 = tensor.empty() : tensor<1x128x28x28xf16>
  %relu90 = linalg.generic {
    indexing_maps = [affine_map<(d0, d1, d2, d3) -> (d0, d1, d2, d3)>,
                     affine_map<(d0, d1, d2, d3) -> (d0, d1, d2, d3)>],
    iterator_types = ["parallel", "parallel", "parallel", "parallel"]
  } ins(%conv88 : tensor<1x128x28x28xf16>)
    outs(%empty89 : tensor<1x128x28x28xf16>) {
  ^bb0(%in: f16, %out: f16):
    %z = arith.constant 0.0 : f16
    %m = arith.maximumf %in, %z : f16
    linalg.yield %m : f16
  } -> tensor<1x128x28x28xf16>
  %pad91 = tensor.pad %relu90 low[0, 0, 1, 1] high[0, 0, 1, 1] {
  ^bb0(%a0: index, %a1: index, %a2: index, %a3: index):
    tensor.yield %cst : f16
  } : tensor<1x128x28x28xf16> to tensor<1x128x30x30xf16>
  %init92 = tensor.empty() : tensor<1x128x28x28xf16>
  %fill93 = linalg.fill ins(%cst : f16) outs(%init92 : tensor<1x128x28x28xf16>) -> tensor<1x128x28x28xf16>
  %conv94 = linalg.conv_2d_nchw_fchw {
    dilations = dense<1> : tensor<2xi64>,
    strides = dense<1> : tensor<2xi64>
  } ins(%pad91, %w_s1_b2_c2 : tensor<1x128x30x30xf16>, tensor<128x128x3x3xf16>)
    outs(%fill93 : tensor<1x128x28x28xf16>) -> tensor<1x128x28x28xf16>
  %empty95 = tensor.empty() : tensor<1x128x28x28xf16>
  %add96 = linalg.generic {
    indexing_maps = [affine_map<(d0, d1, d2, d3) -> (d0, d1, d2, d3)>,
                     affine_map<(d0, d1, d2, d3) -> (d0, d1, d2, d3)>,
                     affine_map<(d0, d1, d2, d3) -> (d0, d1, d2, d3)>],
    iterator_types = ["parallel", "parallel", "parallel", "parallel"]
  } ins(%conv94, %relu84 : tensor<1x128x28x28xf16>, tensor<1x128x28x28xf16>)
    outs(%empty95 : tensor<1x128x28x28xf16>) {
  ^bb0(%a: f16, %b: f16, %out: f16):
    %sum = arith.addf %a, %b : f16
    linalg.yield %sum : f16
  } -> tensor<1x128x28x28xf16>
  %empty97 = tensor.empty() : tensor<1x128x28x28xf16>
  %relu98 = linalg.generic {
    indexing_maps = [affine_map<(d0, d1, d2, d3) -> (d0, d1, d2, d3)>,
                     affine_map<(d0, d1, d2, d3) -> (d0, d1, d2, d3)>],
    iterator_types = ["parallel", "parallel", "parallel", "parallel"]
  } ins(%add96 : tensor<1x128x28x28xf16>)
    outs(%empty97 : tensor<1x128x28x28xf16>) {
  ^bb0(%in: f16, %out: f16):
    %z = arith.constant 0.0 : f16
    %m = arith.maximumf %in, %z : f16
    linalg.yield %m : f16
  } -> tensor<1x128x28x28xf16>

  // === Stage 2 ===
  // BasicBlock 128->256 28x28 stride=2
  %pad99 = tensor.pad %relu98 low[0, 0, 1, 1] high[0, 0, 1, 1] {
  ^bb0(%a0: index, %a1: index, %a2: index, %a3: index):
    tensor.yield %cst : f16
  } : tensor<1x128x28x28xf16> to tensor<1x128x30x30xf16>
  %init100 = tensor.empty() : tensor<1x256x14x14xf16>
  %fill101 = linalg.fill ins(%cst : f16) outs(%init100 : tensor<1x256x14x14xf16>) -> tensor<1x256x14x14xf16>
  %conv102 = linalg.conv_2d_nchw_fchw {
    dilations = dense<1> : tensor<2xi64>,
    strides = dense<2> : tensor<2xi64>
  } ins(%pad99, %w_s2_b0_c1 : tensor<1x128x30x30xf16>, tensor<256x128x3x3xf16>)
    outs(%fill101 : tensor<1x256x14x14xf16>) -> tensor<1x256x14x14xf16>
  %empty103 = tensor.empty() : tensor<1x256x14x14xf16>
  %relu104 = linalg.generic {
    indexing_maps = [affine_map<(d0, d1, d2, d3) -> (d0, d1, d2, d3)>,
                     affine_map<(d0, d1, d2, d3) -> (d0, d1, d2, d3)>],
    iterator_types = ["parallel", "parallel", "parallel", "parallel"]
  } ins(%conv102 : tensor<1x256x14x14xf16>)
    outs(%empty103 : tensor<1x256x14x14xf16>) {
  ^bb0(%in: f16, %out: f16):
    %z = arith.constant 0.0 : f16
    %m = arith.maximumf %in, %z : f16
    linalg.yield %m : f16
  } -> tensor<1x256x14x14xf16>
  %pad105 = tensor.pad %relu104 low[0, 0, 1, 1] high[0, 0, 1, 1] {
  ^bb0(%a0: index, %a1: index, %a2: index, %a3: index):
    tensor.yield %cst : f16
  } : tensor<1x256x14x14xf16> to tensor<1x256x16x16xf16>
  %init106 = tensor.empty() : tensor<1x256x14x14xf16>
  %fill107 = linalg.fill ins(%cst : f16) outs(%init106 : tensor<1x256x14x14xf16>) -> tensor<1x256x14x14xf16>
  %conv108 = linalg.conv_2d_nchw_fchw {
    dilations = dense<1> : tensor<2xi64>,
    strides = dense<1> : tensor<2xi64>
  } ins(%pad105, %w_s2_b0_c2 : tensor<1x256x16x16xf16>, tensor<256x256x3x3xf16>)
    outs(%fill107 : tensor<1x256x14x14xf16>) -> tensor<1x256x14x14xf16>
  // 1x1 shortcut conv
  %init109 = tensor.empty() : tensor<1x256x14x14xf16>
  %fill110 = linalg.fill ins(%cst : f16) outs(%init109 : tensor<1x256x14x14xf16>) -> tensor<1x256x14x14xf16>
  %conv111 = linalg.conv_2d_nchw_fchw {
    dilations = dense<1> : tensor<2xi64>,
    strides = dense<2> : tensor<2xi64>
  } ins(%relu98, %w_s2_b0_sc : tensor<1x128x28x28xf16>, tensor<256x128x1x1xf16>)
    outs(%fill110 : tensor<1x256x14x14xf16>) -> tensor<1x256x14x14xf16>
  %empty112 = tensor.empty() : tensor<1x256x14x14xf16>
  %add113 = linalg.generic {
    indexing_maps = [affine_map<(d0, d1, d2, d3) -> (d0, d1, d2, d3)>,
                     affine_map<(d0, d1, d2, d3) -> (d0, d1, d2, d3)>,
                     affine_map<(d0, d1, d2, d3) -> (d0, d1, d2, d3)>],
    iterator_types = ["parallel", "parallel", "parallel", "parallel"]
  } ins(%conv108, %conv111 : tensor<1x256x14x14xf16>, tensor<1x256x14x14xf16>)
    outs(%empty112 : tensor<1x256x14x14xf16>) {
  ^bb0(%a: f16, %b: f16, %out: f16):
    %sum = arith.addf %a, %b : f16
    linalg.yield %sum : f16
  } -> tensor<1x256x14x14xf16>
  %empty114 = tensor.empty() : tensor<1x256x14x14xf16>
  %relu115 = linalg.generic {
    indexing_maps = [affine_map<(d0, d1, d2, d3) -> (d0, d1, d2, d3)>,
                     affine_map<(d0, d1, d2, d3) -> (d0, d1, d2, d3)>],
    iterator_types = ["parallel", "parallel", "parallel", "parallel"]
  } ins(%add113 : tensor<1x256x14x14xf16>)
    outs(%empty114 : tensor<1x256x14x14xf16>) {
  ^bb0(%in: f16, %out: f16):
    %z = arith.constant 0.0 : f16
    %m = arith.maximumf %in, %z : f16
    linalg.yield %m : f16
  } -> tensor<1x256x14x14xf16>

  // BasicBlock 256->256 14x14 stride=1
  %pad116 = tensor.pad %relu115 low[0, 0, 1, 1] high[0, 0, 1, 1] {
  ^bb0(%a0: index, %a1: index, %a2: index, %a3: index):
    tensor.yield %cst : f16
  } : tensor<1x256x14x14xf16> to tensor<1x256x16x16xf16>
  %init117 = tensor.empty() : tensor<1x256x14x14xf16>
  %fill118 = linalg.fill ins(%cst : f16) outs(%init117 : tensor<1x256x14x14xf16>) -> tensor<1x256x14x14xf16>
  %conv119 = linalg.conv_2d_nchw_fchw {
    dilations = dense<1> : tensor<2xi64>,
    strides = dense<1> : tensor<2xi64>
  } ins(%pad116, %w_s2_b1_c1 : tensor<1x256x16x16xf16>, tensor<256x256x3x3xf16>)
    outs(%fill118 : tensor<1x256x14x14xf16>) -> tensor<1x256x14x14xf16>
  %empty120 = tensor.empty() : tensor<1x256x14x14xf16>
  %relu121 = linalg.generic {
    indexing_maps = [affine_map<(d0, d1, d2, d3) -> (d0, d1, d2, d3)>,
                     affine_map<(d0, d1, d2, d3) -> (d0, d1, d2, d3)>],
    iterator_types = ["parallel", "parallel", "parallel", "parallel"]
  } ins(%conv119 : tensor<1x256x14x14xf16>)
    outs(%empty120 : tensor<1x256x14x14xf16>) {
  ^bb0(%in: f16, %out: f16):
    %z = arith.constant 0.0 : f16
    %m = arith.maximumf %in, %z : f16
    linalg.yield %m : f16
  } -> tensor<1x256x14x14xf16>
  %pad122 = tensor.pad %relu121 low[0, 0, 1, 1] high[0, 0, 1, 1] {
  ^bb0(%a0: index, %a1: index, %a2: index, %a3: index):
    tensor.yield %cst : f16
  } : tensor<1x256x14x14xf16> to tensor<1x256x16x16xf16>
  %init123 = tensor.empty() : tensor<1x256x14x14xf16>
  %fill124 = linalg.fill ins(%cst : f16) outs(%init123 : tensor<1x256x14x14xf16>) -> tensor<1x256x14x14xf16>
  %conv125 = linalg.conv_2d_nchw_fchw {
    dilations = dense<1> : tensor<2xi64>,
    strides = dense<1> : tensor<2xi64>
  } ins(%pad122, %w_s2_b1_c2 : tensor<1x256x16x16xf16>, tensor<256x256x3x3xf16>)
    outs(%fill124 : tensor<1x256x14x14xf16>) -> tensor<1x256x14x14xf16>
  %empty126 = tensor.empty() : tensor<1x256x14x14xf16>
  %add127 = linalg.generic {
    indexing_maps = [affine_map<(d0, d1, d2, d3) -> (d0, d1, d2, d3)>,
                     affine_map<(d0, d1, d2, d3) -> (d0, d1, d2, d3)>,
                     affine_map<(d0, d1, d2, d3) -> (d0, d1, d2, d3)>],
    iterator_types = ["parallel", "parallel", "parallel", "parallel"]
  } ins(%conv125, %relu115 : tensor<1x256x14x14xf16>, tensor<1x256x14x14xf16>)
    outs(%empty126 : tensor<1x256x14x14xf16>) {
  ^bb0(%a: f16, %b: f16, %out: f16):
    %sum = arith.addf %a, %b : f16
    linalg.yield %sum : f16
  } -> tensor<1x256x14x14xf16>
  %empty128 = tensor.empty() : tensor<1x256x14x14xf16>
  %relu129 = linalg.generic {
    indexing_maps = [affine_map<(d0, d1, d2, d3) -> (d0, d1, d2, d3)>,
                     affine_map<(d0, d1, d2, d3) -> (d0, d1, d2, d3)>],
    iterator_types = ["parallel", "parallel", "parallel", "parallel"]
  } ins(%add127 : tensor<1x256x14x14xf16>)
    outs(%empty128 : tensor<1x256x14x14xf16>) {
  ^bb0(%in: f16, %out: f16):
    %z = arith.constant 0.0 : f16
    %m = arith.maximumf %in, %z : f16
    linalg.yield %m : f16
  } -> tensor<1x256x14x14xf16>

  // BasicBlock 256->256 14x14 stride=1
  %pad130 = tensor.pad %relu129 low[0, 0, 1, 1] high[0, 0, 1, 1] {
  ^bb0(%a0: index, %a1: index, %a2: index, %a3: index):
    tensor.yield %cst : f16
  } : tensor<1x256x14x14xf16> to tensor<1x256x16x16xf16>
  %init131 = tensor.empty() : tensor<1x256x14x14xf16>
  %fill132 = linalg.fill ins(%cst : f16) outs(%init131 : tensor<1x256x14x14xf16>) -> tensor<1x256x14x14xf16>
  %conv133 = linalg.conv_2d_nchw_fchw {
    dilations = dense<1> : tensor<2xi64>,
    strides = dense<1> : tensor<2xi64>
  } ins(%pad130, %w_s2_b2_c1 : tensor<1x256x16x16xf16>, tensor<256x256x3x3xf16>)
    outs(%fill132 : tensor<1x256x14x14xf16>) -> tensor<1x256x14x14xf16>
  %empty134 = tensor.empty() : tensor<1x256x14x14xf16>
  %relu135 = linalg.generic {
    indexing_maps = [affine_map<(d0, d1, d2, d3) -> (d0, d1, d2, d3)>,
                     affine_map<(d0, d1, d2, d3) -> (d0, d1, d2, d3)>],
    iterator_types = ["parallel", "parallel", "parallel", "parallel"]
  } ins(%conv133 : tensor<1x256x14x14xf16>)
    outs(%empty134 : tensor<1x256x14x14xf16>) {
  ^bb0(%in: f16, %out: f16):
    %z = arith.constant 0.0 : f16
    %m = arith.maximumf %in, %z : f16
    linalg.yield %m : f16
  } -> tensor<1x256x14x14xf16>
  %pad136 = tensor.pad %relu135 low[0, 0, 1, 1] high[0, 0, 1, 1] {
  ^bb0(%a0: index, %a1: index, %a2: index, %a3: index):
    tensor.yield %cst : f16
  } : tensor<1x256x14x14xf16> to tensor<1x256x16x16xf16>
  %init137 = tensor.empty() : tensor<1x256x14x14xf16>
  %fill138 = linalg.fill ins(%cst : f16) outs(%init137 : tensor<1x256x14x14xf16>) -> tensor<1x256x14x14xf16>
  %conv139 = linalg.conv_2d_nchw_fchw {
    dilations = dense<1> : tensor<2xi64>,
    strides = dense<1> : tensor<2xi64>
  } ins(%pad136, %w_s2_b2_c2 : tensor<1x256x16x16xf16>, tensor<256x256x3x3xf16>)
    outs(%fill138 : tensor<1x256x14x14xf16>) -> tensor<1x256x14x14xf16>
  %empty140 = tensor.empty() : tensor<1x256x14x14xf16>
  %add141 = linalg.generic {
    indexing_maps = [affine_map<(d0, d1, d2, d3) -> (d0, d1, d2, d3)>,
                     affine_map<(d0, d1, d2, d3) -> (d0, d1, d2, d3)>,
                     affine_map<(d0, d1, d2, d3) -> (d0, d1, d2, d3)>],
    iterator_types = ["parallel", "parallel", "parallel", "parallel"]
  } ins(%conv139, %relu129 : tensor<1x256x14x14xf16>, tensor<1x256x14x14xf16>)
    outs(%empty140 : tensor<1x256x14x14xf16>) {
  ^bb0(%a: f16, %b: f16, %out: f16):
    %sum = arith.addf %a, %b : f16
    linalg.yield %sum : f16
  } -> tensor<1x256x14x14xf16>
  %empty142 = tensor.empty() : tensor<1x256x14x14xf16>
  %relu143 = linalg.generic {
    indexing_maps = [affine_map<(d0, d1, d2, d3) -> (d0, d1, d2, d3)>,
                     affine_map<(d0, d1, d2, d3) -> (d0, d1, d2, d3)>],
    iterator_types = ["parallel", "parallel", "parallel", "parallel"]
  } ins(%add141 : tensor<1x256x14x14xf16>)
    outs(%empty142 : tensor<1x256x14x14xf16>) {
  ^bb0(%in: f16, %out: f16):
    %z = arith.constant 0.0 : f16
    %m = arith.maximumf %in, %z : f16
    linalg.yield %m : f16
  } -> tensor<1x256x14x14xf16>

  // === Stage 3 ===
  // BasicBlock 256->512 14x14 stride=2
  %pad144 = tensor.pad %relu143 low[0, 0, 1, 1] high[0, 0, 1, 1] {
  ^bb0(%a0: index, %a1: index, %a2: index, %a3: index):
    tensor.yield %cst : f16
  } : tensor<1x256x14x14xf16> to tensor<1x256x16x16xf16>
  %init145 = tensor.empty() : tensor<1x512x7x7xf16>
  %fill146 = linalg.fill ins(%cst : f16) outs(%init145 : tensor<1x512x7x7xf16>) -> tensor<1x512x7x7xf16>
  %conv147 = linalg.conv_2d_nchw_fchw {
    dilations = dense<1> : tensor<2xi64>,
    strides = dense<2> : tensor<2xi64>
  } ins(%pad144, %w_s3_b0_c1 : tensor<1x256x16x16xf16>, tensor<512x256x3x3xf16>)
    outs(%fill146 : tensor<1x512x7x7xf16>) -> tensor<1x512x7x7xf16>
  %empty148 = tensor.empty() : tensor<1x512x7x7xf16>
  %relu149 = linalg.generic {
    indexing_maps = [affine_map<(d0, d1, d2, d3) -> (d0, d1, d2, d3)>,
                     affine_map<(d0, d1, d2, d3) -> (d0, d1, d2, d3)>],
    iterator_types = ["parallel", "parallel", "parallel", "parallel"]
  } ins(%conv147 : tensor<1x512x7x7xf16>)
    outs(%empty148 : tensor<1x512x7x7xf16>) {
  ^bb0(%in: f16, %out: f16):
    %z = arith.constant 0.0 : f16
    %m = arith.maximumf %in, %z : f16
    linalg.yield %m : f16
  } -> tensor<1x512x7x7xf16>
  %pad150 = tensor.pad %relu149 low[0, 0, 1, 1] high[0, 0, 1, 1] {
  ^bb0(%a0: index, %a1: index, %a2: index, %a3: index):
    tensor.yield %cst : f16
  } : tensor<1x512x7x7xf16> to tensor<1x512x9x9xf16>
  %init151 = tensor.empty() : tensor<1x512x7x7xf16>
  %fill152 = linalg.fill ins(%cst : f16) outs(%init151 : tensor<1x512x7x7xf16>) -> tensor<1x512x7x7xf16>
  %conv153 = linalg.conv_2d_nchw_fchw {
    dilations = dense<1> : tensor<2xi64>,
    strides = dense<1> : tensor<2xi64>
  } ins(%pad150, %w_s3_b0_c2 : tensor<1x512x9x9xf16>, tensor<512x512x3x3xf16>)
    outs(%fill152 : tensor<1x512x7x7xf16>) -> tensor<1x512x7x7xf16>
  // 1x1 shortcut conv
  %init154 = tensor.empty() : tensor<1x512x7x7xf16>
  %fill155 = linalg.fill ins(%cst : f16) outs(%init154 : tensor<1x512x7x7xf16>) -> tensor<1x512x7x7xf16>
  %conv156 = linalg.conv_2d_nchw_fchw {
    dilations = dense<1> : tensor<2xi64>,
    strides = dense<2> : tensor<2xi64>
  } ins(%relu143, %w_s3_b0_sc : tensor<1x256x14x14xf16>, tensor<512x256x1x1xf16>)
    outs(%fill155 : tensor<1x512x7x7xf16>) -> tensor<1x512x7x7xf16>
  %empty157 = tensor.empty() : tensor<1x512x7x7xf16>
  %add158 = linalg.generic {
    indexing_maps = [affine_map<(d0, d1, d2, d3) -> (d0, d1, d2, d3)>,
                     affine_map<(d0, d1, d2, d3) -> (d0, d1, d2, d3)>,
                     affine_map<(d0, d1, d2, d3) -> (d0, d1, d2, d3)>],
    iterator_types = ["parallel", "parallel", "parallel", "parallel"]
  } ins(%conv153, %conv156 : tensor<1x512x7x7xf16>, tensor<1x512x7x7xf16>)
    outs(%empty157 : tensor<1x512x7x7xf16>) {
  ^bb0(%a: f16, %b: f16, %out: f16):
    %sum = arith.addf %a, %b : f16
    linalg.yield %sum : f16
  } -> tensor<1x512x7x7xf16>
  %empty159 = tensor.empty() : tensor<1x512x7x7xf16>
  %relu160 = linalg.generic {
    indexing_maps = [affine_map<(d0, d1, d2, d3) -> (d0, d1, d2, d3)>,
                     affine_map<(d0, d1, d2, d3) -> (d0, d1, d2, d3)>],
    iterator_types = ["parallel", "parallel", "parallel", "parallel"]
  } ins(%add158 : tensor<1x512x7x7xf16>)
    outs(%empty159 : tensor<1x512x7x7xf16>) {
  ^bb0(%in: f16, %out: f16):
    %z = arith.constant 0.0 : f16
    %m = arith.maximumf %in, %z : f16
    linalg.yield %m : f16
  } -> tensor<1x512x7x7xf16>

  // BasicBlock 512->512 7x7 stride=1
  %pad161 = tensor.pad %relu160 low[0, 0, 1, 1] high[0, 0, 1, 1] {
  ^bb0(%a0: index, %a1: index, %a2: index, %a3: index):
    tensor.yield %cst : f16
  } : tensor<1x512x7x7xf16> to tensor<1x512x9x9xf16>
  %init162 = tensor.empty() : tensor<1x512x7x7xf16>
  %fill163 = linalg.fill ins(%cst : f16) outs(%init162 : tensor<1x512x7x7xf16>) -> tensor<1x512x7x7xf16>
  %conv164 = linalg.conv_2d_nchw_fchw {
    dilations = dense<1> : tensor<2xi64>,
    strides = dense<1> : tensor<2xi64>
  } ins(%pad161, %w_s3_b1_c1 : tensor<1x512x9x9xf16>, tensor<512x512x3x3xf16>)
    outs(%fill163 : tensor<1x512x7x7xf16>) -> tensor<1x512x7x7xf16>
  %empty165 = tensor.empty() : tensor<1x512x7x7xf16>
  %relu166 = linalg.generic {
    indexing_maps = [affine_map<(d0, d1, d2, d3) -> (d0, d1, d2, d3)>,
                     affine_map<(d0, d1, d2, d3) -> (d0, d1, d2, d3)>],
    iterator_types = ["parallel", "parallel", "parallel", "parallel"]
  } ins(%conv164 : tensor<1x512x7x7xf16>)
    outs(%empty165 : tensor<1x512x7x7xf16>) {
  ^bb0(%in: f16, %out: f16):
    %z = arith.constant 0.0 : f16
    %m = arith.maximumf %in, %z : f16
    linalg.yield %m : f16
  } -> tensor<1x512x7x7xf16>
  %pad167 = tensor.pad %relu166 low[0, 0, 1, 1] high[0, 0, 1, 1] {
  ^bb0(%a0: index, %a1: index, %a2: index, %a3: index):
    tensor.yield %cst : f16
  } : tensor<1x512x7x7xf16> to tensor<1x512x9x9xf16>
  %init168 = tensor.empty() : tensor<1x512x7x7xf16>
  %fill169 = linalg.fill ins(%cst : f16) outs(%init168 : tensor<1x512x7x7xf16>) -> tensor<1x512x7x7xf16>
  %conv170 = linalg.conv_2d_nchw_fchw {
    dilations = dense<1> : tensor<2xi64>,
    strides = dense<1> : tensor<2xi64>
  } ins(%pad167, %w_s3_b1_c2 : tensor<1x512x9x9xf16>, tensor<512x512x3x3xf16>)
    outs(%fill169 : tensor<1x512x7x7xf16>) -> tensor<1x512x7x7xf16>
  %empty171 = tensor.empty() : tensor<1x512x7x7xf16>
  %add172 = linalg.generic {
    indexing_maps = [affine_map<(d0, d1, d2, d3) -> (d0, d1, d2, d3)>,
                     affine_map<(d0, d1, d2, d3) -> (d0, d1, d2, d3)>,
                     affine_map<(d0, d1, d2, d3) -> (d0, d1, d2, d3)>],
    iterator_types = ["parallel", "parallel", "parallel", "parallel"]
  } ins(%conv170, %relu160 : tensor<1x512x7x7xf16>, tensor<1x512x7x7xf16>)
    outs(%empty171 : tensor<1x512x7x7xf16>) {
  ^bb0(%a: f16, %b: f16, %out: f16):
    %sum = arith.addf %a, %b : f16
    linalg.yield %sum : f16
  } -> tensor<1x512x7x7xf16>
  %empty173 = tensor.empty() : tensor<1x512x7x7xf16>
  %relu174 = linalg.generic {
    indexing_maps = [affine_map<(d0, d1, d2, d3) -> (d0, d1, d2, d3)>,
                     affine_map<(d0, d1, d2, d3) -> (d0, d1, d2, d3)>],
    iterator_types = ["parallel", "parallel", "parallel", "parallel"]
  } ins(%add172 : tensor<1x512x7x7xf16>)
    outs(%empty173 : tensor<1x512x7x7xf16>) {
  ^bb0(%in: f16, %out: f16):
    %z = arith.constant 0.0 : f16
    %m = arith.maximumf %in, %z : f16
    linalg.yield %m : f16
  } -> tensor<1x512x7x7xf16>

  // BasicBlock 512->512 7x7 stride=1
  %pad175 = tensor.pad %relu174 low[0, 0, 1, 1] high[0, 0, 1, 1] {
  ^bb0(%a0: index, %a1: index, %a2: index, %a3: index):
    tensor.yield %cst : f16
  } : tensor<1x512x7x7xf16> to tensor<1x512x9x9xf16>
  %init176 = tensor.empty() : tensor<1x512x7x7xf16>
  %fill177 = linalg.fill ins(%cst : f16) outs(%init176 : tensor<1x512x7x7xf16>) -> tensor<1x512x7x7xf16>
  %conv178 = linalg.conv_2d_nchw_fchw {
    dilations = dense<1> : tensor<2xi64>,
    strides = dense<1> : tensor<2xi64>
  } ins(%pad175, %w_s3_b2_c1 : tensor<1x512x9x9xf16>, tensor<512x512x3x3xf16>)
    outs(%fill177 : tensor<1x512x7x7xf16>) -> tensor<1x512x7x7xf16>
  %empty179 = tensor.empty() : tensor<1x512x7x7xf16>
  %relu180 = linalg.generic {
    indexing_maps = [affine_map<(d0, d1, d2, d3) -> (d0, d1, d2, d3)>,
                     affine_map<(d0, d1, d2, d3) -> (d0, d1, d2, d3)>],
    iterator_types = ["parallel", "parallel", "parallel", "parallel"]
  } ins(%conv178 : tensor<1x512x7x7xf16>)
    outs(%empty179 : tensor<1x512x7x7xf16>) {
  ^bb0(%in: f16, %out: f16):
    %z = arith.constant 0.0 : f16
    %m = arith.maximumf %in, %z : f16
    linalg.yield %m : f16
  } -> tensor<1x512x7x7xf16>
  %pad181 = tensor.pad %relu180 low[0, 0, 1, 1] high[0, 0, 1, 1] {
  ^bb0(%a0: index, %a1: index, %a2: index, %a3: index):
    tensor.yield %cst : f16
  } : tensor<1x512x7x7xf16> to tensor<1x512x9x9xf16>
  %init182 = tensor.empty() : tensor<1x512x7x7xf16>
  %fill183 = linalg.fill ins(%cst : f16) outs(%init182 : tensor<1x512x7x7xf16>) -> tensor<1x512x7x7xf16>
  %conv184 = linalg.conv_2d_nchw_fchw {
    dilations = dense<1> : tensor<2xi64>,
    strides = dense<1> : tensor<2xi64>
  } ins(%pad181, %w_s3_b2_c2 : tensor<1x512x9x9xf16>, tensor<512x512x3x3xf16>)
    outs(%fill183 : tensor<1x512x7x7xf16>) -> tensor<1x512x7x7xf16>
  %empty185 = tensor.empty() : tensor<1x512x7x7xf16>
  %add186 = linalg.generic {
    indexing_maps = [affine_map<(d0, d1, d2, d3) -> (d0, d1, d2, d3)>,
                     affine_map<(d0, d1, d2, d3) -> (d0, d1, d2, d3)>,
                     affine_map<(d0, d1, d2, d3) -> (d0, d1, d2, d3)>],
    iterator_types = ["parallel", "parallel", "parallel", "parallel"]
  } ins(%conv184, %relu174 : tensor<1x512x7x7xf16>, tensor<1x512x7x7xf16>)
    outs(%empty185 : tensor<1x512x7x7xf16>) {
  ^bb0(%a: f16, %b: f16, %out: f16):
    %sum = arith.addf %a, %b : f16
    linalg.yield %sum : f16
  } -> tensor<1x512x7x7xf16>
  %empty187 = tensor.empty() : tensor<1x512x7x7xf16>
  %relu188 = linalg.generic {
    indexing_maps = [affine_map<(d0, d1, d2, d3) -> (d0, d1, d2, d3)>,
                     affine_map<(d0, d1, d2, d3) -> (d0, d1, d2, d3)>],
    iterator_types = ["parallel", "parallel", "parallel", "parallel"]
  } ins(%add186 : tensor<1x512x7x7xf16>)
    outs(%empty187 : tensor<1x512x7x7xf16>) {
  ^bb0(%in: f16, %out: f16):
    %z = arith.constant 0.0 : f16
    %m = arith.maximumf %in, %z : f16
    linalg.yield %m : f16
  } -> tensor<1x512x7x7xf16>

  // FC as 7x7 conv: 512->1000
  %fc_init189 = tensor.empty() : tensor<1x1000x1x1xf16>
  %fc_fill190 = linalg.fill ins(%cst : f16) outs(%fc_init189 : tensor<1x1000x1x1xf16>) -> tensor<1x1000x1x1xf16>
  %fc191 = linalg.conv_2d_nchw_fchw {
    dilations = dense<1> : tensor<2xi64>,
    strides = dense<1> : tensor<2xi64>
  } ins(%relu188, %w_fc : tensor<1x512x7x7xf16>, tensor<1000x512x7x7xf16>)
    outs(%fc_fill190 : tensor<1x1000x1x1xf16>) -> tensor<1x1000x1x1xf16>
  return %fc191 : tensor<1x1000x1x1xf16>
}
